assets/model.tflite (tflite, 15356 bytes, 6 tensors)

arith.constant f4 [32]
0	0xbd629661	-0.055319194
1	0xbc81f50d	-0.01586392
2	0xbd3745b3	-0.044744205
3	0x3da470d0	0.0802933
4	0x3e841294	0.25795424
5	0x3b86f0a6	0.004118043
6	0x3e8ad7cc	0.27117765
7	0x3dc85f66	0.09783821
8	0x3d57843d	0.052616347
9	0x3e988478	0.29788566
10	0x3e326cbc	0.17424291
11	0x3e1b50b0	0.15167499
12	0xbc57cc2c	-0.013171237
13	0x3e8516d2	0.25993973
14	0xbd1ed306	-0.038775466
15	0x3ec25a45	0.37959495
16	0x3e5b5b33	0.21421508
17	0x3c38ab91	0.011271373
18	0x3ebed159	0.37269095
19	0x3e522da4	0.20525223
20	0xbc800ad4	-0.015630163
21	0x3e939e77	0.28831837
22	0x3ed6c489	0.4194682
23	0x3e557b03	0.20847706
24	0x3d848e0d	0.064724065
25	0x3c94c892	0.018162046
26	0x3e1d11b0	0.15338778
27	0xbe871c5b	-0.2638882
28	0x3e26c9e4	0.16287953
29	0x3e2c0484	0.16798598
30	0xbd002091	-0.031281058
31	0x3e300fcb	0.17193525

arith.constant1 f4 [22]
0	0xbe2924a4	-0.16517884
1	0x3b4ecb54	0.0031554298
2	0x3e7e5eef	0.24840902
3	0xbc03f9e6	-0.008055186
4	0xbce900ec	-0.028442822
5	0x3cb5707f	0.022148369
6	0x3c355e73	0.011069882
7	0xbe26e88e	-0.1629965
8	0x3e7e1212	0.24811581
9	0xbd55114f	-0.05201846
10	0xbdad64c1	-0.08466483
11	0x3e6b0c86	0.22953996
12	0x3c08838e	0.008332146
13	0xbde1c3e1	-0.11023689
14	0x3c6a5845	0.014303272
15	0xbe178686	-0.1479741
16	0xbdbbbdff	-0.09167098
17	0xbc515d23	-0.012778553
18	0x3d2e50a0	0.04255736
19	0x3d97496e	0.073870525
20	0xbe346ed2	-0.176204
21	0x3b237814	0.0024943398

arith.constant2 f4 [22, 32]
0	0xbed6e4ea	-0.41971523
1	0xbd2567ca	-0.040382184
2	0xbe358007	-0.1772462
3	0x3e13bdd5	0.14427884
4	0x3e927b6d	0.2860979
5	0xbe9e4c54	-0.3091761
6	0x3eb96d1e	0.36216062
7	0x3e21e0cf	0.15808414
8	0x3eddf346	0.43349665
9	0x3eab4626	0.33451957
10	0x3d9745dd	0.07386372
11	0x3d93c57f	0.07215404
12	0xbde1b17f	-0.11020183
13	0xbf20d26e	-0.6282109
14	0x3e948608	0.29008508
15	0xbd00f112	-0.031479903
16	0x3df4ce62	0.11953427
17	0xbe1046c0	-0.14089489
18	0xbdcbc6d2	-0.09950031
19	0xbf4eda57	-0.8080191
20	0xbcc19098	-0.023628518
21	0xbe2cce93	-0.16875677
22	0xbeb9ff1d	-0.36327448
23	0xbe5268c2	-0.20547774
24	0xbe95b95e	-0.29242986
25	0xbf1f43fb	-0.62213105
26	0xbf2093bf	-0.6272544
27	0xbe5e0503	-0.216816
28	0xbe84b870	-0.25921965
29	0xbf5de72d	-0.8668087
30	0xbe8b3fc0	-0.27197075
31	0x3e8c35ea	0.27384883
32	0x3e806a97	0.25081322
33	0x3ec4611b	0.38355336
34	0xbe7adfd5	-0.24499448
35	0x3e913b2d	0.2836546
36	0xbf2b415a	-0.66896594
37	0x3ee499fc	0.4464873
38	0x3eefb919	0.46820906
39	0xba600a6e	-0.0008546476
40	0xbef4baa3	-0.47798643
41	0xbc3a985b	-0.011388863
42	0xbed3b61d	-0.4134988
43	0xbf077a26	-0.5292076
44	0xbd6badf4	-0.05753894
45	0xbe5ded81	-0.21672632
46	0x3e103ed8	0.14086473
47	0xbe1b6fa4	-0.15179306
48	0xbef1b13e	-0.47205538
49	0xbe88a195	-0.26685777
50	0x3e813eaf	0.25243136
51	0x3d381bf8	0.044948548
52	0xbf223ca4	-0.6337378
53	0x3c6c6f45	0.014430826
54	0x3ea419cd	0.32050934
55	0xbef8c579	-0.4858816
56	0xbe54613b	-0.20740215
57	0xbf199b0f	-0.60002226
58	0xbeb6e9ef	-0.35725352
59	0xbe95699e	-0.29182142
60	0xbf458791	-0.7715998
61	0xbde1f843	-0.1103368
62	0xbe4b49ef	-0.19852422
63	0x3eb09114	0.34485686
64	0xbe7ce877	-0.24698053
65	0xbf4511f4	-0.7698052
66	0xbf34fe45	-0.70700485
67	0xbf5e9868	-0.86951303
68	0x3e146790	0.14492631
69	0xbd57d182	-0.052690037
70	0x3eac7b4b	0.33687815
71	0x3eb75876	0.35809678
72	0xbca96915	-0.02067999
73	0xbe81e6b4	-0.25371325
74	0xbef8e12f	-0.486093
75	0xbefcb83c	-0.4935931
76	0xbe5d643f	-0.21620272
77	0xbe74542f	-0.23860238
78	0xbe1e88af	-0.15481828
79	0x3e3a248b	0.18178003
80	0xbf2a4757	-0.66515106
81	0x3dd6bd44	0.10485318
82	0xbf037af0	-0.5135946
83	0x3efc7dc5	0.49314705
84	0x3d09c1eb	0.0336322
85	0x3dc285e7	0.09498196
86	0x3e003f73	0.12524204
87	0x3eb95eac	0.3620504
88	0x3dba1db6	0.09087698
89	0xbc2923a5	-0.01032344
90	0x3eec27a3	0.4612399
91	0xbef63a29	-0.48091248
92	0xbf3f9256	-0.74832666
93	0x3eda5e15	0.42649904
94	0x3e6bf537	0.23042761
95	0x3d9787e9	0.0739897
96	0xbf28ae1b	-0.65890664
97	0xbed7b05c	-0.4212674
98	0xbe572311	-0.2100947
99	0xbf1931e2	-0.5984174
100	0xbe97397a	-0.2953604
101	0xbcee9e30	-0.029128164
102	0x3e1df1dc	0.15424293
103	0xbe9fba3d	-0.31196776
104	0x3eea9c13	0.458222
105	0x3e91979e	0.28435987
106	0x3ebc4d1e	0.36777586
107	0x3ba9c3e8	0.0051808245
108	0xbe92b3d6	-0.2865283
109	0x3ee21879	0.44159296
110	0x3dc8f7d2	0.09812893
111	0x3ecddf66	0.40209502
112	0xbf0e1a74	-0.55509114
113	0x3e8addd9	0.2712238
114	0xbeb35d72	-0.3503223
115	0xbf442a0c	-0.7662666
116	0xbed814dc	-0.42203414
117	0x3e0e6338	0.13905036
118	0xbf0d01c8	-0.5508084
119	0xbe153e87	-0.14574634
120	0x3eb1c46e	0.34720176
121	0xbdab4bc0	-0.083640575
122	0xbf3ab362	-0.72929966
123	0x3e82ccdf	0.2554693
124	0xbf112981	-0.56703955
125	0x3e204968	0.15653002
126	0x3e519edd	0.20470758
127	0xbf13781a	-0.57605135
128	0xbeffee36	-0.49986428
129	0x3ebe6721	0.37188056
130	0xbbada8e7	-0.0052996757
131	0xbdb65fa5	-0.089049615
132	0x3ee7f561	0.45304397
133	0xbf549071	-0.830329
134	0xbd9d1af1	-0.07671154
135	0xbe3259f6	-0.1741713
136	0xbf2f9fee	-0.6860341
137	0xbf194d4f	-0.5988359
138	0x3e964b05	0.2935411
139	0x3e7f17df	0.2491145
140	0xbe25a972	-0.1617792
141	0xbf4c2b72	-0.7975379
142	0xbf1a5bf2	-0.6029655
143	0x3ecbbb8f	0.39791533
144	0x3e9b0bd6	0.30282468
145	0x3e201a97	0.15635143
146	0xbd831365	-0.064001836
147	0xbe1ae6ca	-0.15127102
148	0xbea9a4c7	-0.33133528
149	0x3d3f9017	0.046768274
150	0xbc9ead25	-0.019369671
151	0xbf318efe	-0.69358814
152	0x3ebd03aa	0.36916858
153	0xbf644fcf	-0.8918428
154	0xbe9071e0	-0.2821188
155	0xbf074cac	-0.52851367
156	0x3e12a135	0.14319308
157	0xbf4d5abb	-0.8021657
158	0xbeaec082	-0.34131247
159	0xbf0071ed	-0.50173837
160	0xbf27a269	-0.65482193
161	0xbf592413	-0.8482067
162	0x3ecb5547	0.397135
163	0x3ea42755	0.32061258
164	0xbf614100	-0.8798981
165	0xbd25f601	-0.04051781
166	0xbf0157a7	-0.5052437
167	0x3e4f2b87	0.20231448
168	0xbf2d9b33	-0.6781494
169	0x3ed6433f	0.4184818
170	0x3da7c4e9	0.081918545
171	0xbeb4857f	-0.352581
172	0xbe2d03cd	-0.16895981
173	0xbd9a1f0a	-0.075254515
174	0xbeac0c32	-0.33603054
175	0xbd87cbb3	-0.066306494
176	0x3e109708	0.14120114
177	0xbe6a53e5	-0.22883566
178	0x3e46bb01	0.19407274
179	0xbf5cc52f	-0.8623838
180	0x3e2fb019	0.1715702
181	0x3ee305d8	0.44340396
182	0xbeaa72ab	-0.3329061
183	0x3f3c6e9b	0.7360627
184	0xbf2dceb7	-0.67893547
185	0x3ad1a4df	0.001599457
186	0xbe4880b0	-0.1958034
187	0xbe35a07a	-0.17736998
188	0x3daa39ab	0.083117805
189	0xbf0db4dc	-0.55354095
190	0x3e6f8537	0.23390661
191	0xbf291237	-0.6604342
192	0x3e1847c0	0.1487112
193	0x3e5164d5	0.2044862
194	0xbf5e6407	-0.8687138
195	0xbf5eb456	-0.8699392
196	0xbf5c9832	-0.8616973
197	0x3e37d73b	0.17953198
198	0xbddf7e09	-0.10912711
199	0x3eac7709	0.33684567
200	0xbf149135	-0.5803407
201	0x3e9a3a3f	0.30122563
202	0xbf69adbb	-0.91280717
203	0x3d5b29ec	0.053506777
204	0x3c414cd5	0.011798103
205	0xbf0bbaf3	-0.54582137
206	0xbf9718f3	-1.1804489
207	0xbe43cdd1	-0.19121481
208	0xbf1ec5bf	-0.62020487
209	0x3c5dcfd2	0.013538318
210	0x3bcadb48	0.006190691
211	0xbe6eb0f9	-0.23309697
212	0x3ea9cc03	0.3316346
213	0x3ec92b4c	0.39290845
214	0x3cc0e21a	0.023545314
215	0xbea6c758	-0.32573962
216	0xbe88b342	-0.26699263
217	0x3f0dca0b	0.5538642
218	0xbf386527	-0.72029346
219	0xbf070253	-0.5273792
220	0x3d6336a4	0.05547203
221	0xbd9f15d4	-0.07767835
222	0x3cd59774	0.026073195
223	0x3da63e8f	0.08117401
224	0xbe5a5332	-0.21320799
225	0x3ec5b7ea	0.38616878
226	0xbe0686d0	-0.13137364
227	0xbf0bc350	-0.545949
228	0xbe293159	-0.16522731
229	0x3e4dfbdf	0.20115612
230	0x3ec6efde	0.3885488
231	0xbe3adab8	-0.18247497
232	0xbeb0ba35	-0.34517065
233	0x3e0b3874	0.13595754
234	0xbdf388c3	-0.118913196
235	0x3e8ac5e9	0.27104118
236	0xbe418174	-0.18897039
237	0x3e52b0b4	0.2057522
238	0x3eb31aa8	0.34981275
239	0xbeea53ec	-0.45767152
240	0xbf3a584c	-0.7279098
241	0x3e49f586	0.19722566
242	0xbe99d2ed	-0.30043736
243	0x3de6e170	0.112734675
244	0xbeb71549	-0.35758427
245	0x3e14df70	0.1453836
246	0xbf286c8b	-0.65790623
247	0xbe9bf471	-0.30459931
248	0xbe64cbf6	-0.2234343
249	0xbd81f975	-0.06346408
250	0x3d3c4012	0.04595954
251	0x3e1175ab	0.14205043
252	0xbf169ba4	-0.5883124
253	0x3daec5d4	0.085338265
254	0xbdc27a45	-0.09495977
255	0x3e683e2c	0.22679967

arith.constant3 f4 [32, 64]
0	0x3e1e854b	0.15480535
1	0xbd18cc3a	-0.03730414
2	0xbddae4d7	-0.10688179
3	0x3e8eb156	0.27869672
4	0x3e8fc013	0.28076228
5	0xbf0b9498	-0.5452361
6	0xbe951123	-0.29114637
7	0xbe697ec6	-0.22802266
8	0xbdff679e	-0.12470935
9	0xbde9375b	-0.11387511
10	0xbe507775	-0.20358069
11	0x3e153e2a	0.14574495
12	0xbd067419	-0.032825563
13	0x3e36492e	0.17801353
14	0xbe99b8dd	-0.30023852
15	0x3ebd3831	0.36956933
16	0x3efca722	0.49346262
17	0x3de2a1e8	0.110660374
18	0xbd4e9b96	-0.050441347
19	0x3e21a08e	0.15783903
20	0x3dd4d553	0.10392251
21	0x3c846275	0.01616023
22	0xbede5bc0	-0.43429375
23	0x3dd7e610	0.10541928
24	0x3f0380d4	0.5136845
25	0x3f0f7cc6	0.56049764
26	0x3e041dba	0.12901965
27	0xbee5283a	-0.44757253
28	0x3d2db240	0.04240632
29	0xbe42f8c9	-0.19040217
30	0x3dbb33b5	0.09140722
31	0xbe9a2c59	-0.3011196
32	0x3cd5c878	0.026096568
33	0x3ec22fa9	0.37926987
34	0x3ec5cba4	0.38631928
35	0xbcb2d804	-0.02183152
36	0x3f14dce6	0.58149564
37	0xbd968594	-0.07349697
38	0x3f16cfa2	0.5891057
39	0x3e32e24b	0.17469136
40	0xbd2a8227	-0.04162803
41	0x3f1432a8	0.57889795
42	0x3edcbb59	0.43111685
43	0x3e630d74	0.221731
44	0x3e86f522	0.26358896
45	0x3ebaad7f	0.36460492
46	0xbde9c612	-0.11414732
47	0x3ed9fc6b	0.42575392
48	0x3eccb954	0.39985144
49	0x3e21265f	0.15737294
50	0x3f037453	0.5134937
51	0x3eaefedc	0.34178817
52	0x3e8122c5	0.2522184
53	0xbe6f237d	-0.23353381
54	0x3cb3e897	0.021961493
55	0x3eee4ea3	0.4654437
56	0xbe9639b7	-0.29340908
57	0x3d5a1869	0.053245936
58	0xbefa5ed0	-0.4890046
59	0x3e0dce1f	0.1384816
60	0x3eddb484	0.43301785
61	0xbe5e44fd	-0.21706004
62	0x3e6fb2ed	0.23408099
63	0xbeb59d1c	-0.35471427
64	0xbe679688	-0.22616017
65	0x3e261465	0.16218717
66	0xbda20c5d	-0.07912514
67	0xbd841a76	-0.064503595
68	0xbe582b7e	-0.21110341
69	0x3f01686d	0.50549966
70	0xbe79f375	-0.24409278
71	0xbc99f679	-0.018794285
72	0xbed1797e	-0.40913004
73	0x3eb0bb48	0.34517884
74	0xbef2a140	-0.4738865
75	0xbd5cc33a	-0.05389712
76	0x3e4efcf4	0.20213681
77	0x3e7dc573	0.24782352
78	0x3efe11c6	0.49622935
79	0xbd5fc8a1	-0.054634694
80	0x3d94486b	0.07240375
81	0x3e83dee2	0.25755984
82	0x3dd8cc22	0.1058581
83	0xbf15315d	-0.5827845
84	0x3f0f33e4	0.55938554
85	0xbe6a7d20	-0.22899294
86	0x3e86b0a3	0.26306638
87	0x3d253073	0.040329408
88	0x3e29053a	0.165059
89	0x3ee6b8ef	0.45062968
90	0xbd767ac2	-0.060175665
91	0x3e5bd060	0.21466208
92	0x3eab4284	0.33449185
93	0xbec1bd0e	-0.3783955
94	0x3edf642f	0.43631122
95	0x3d1caf97	0.038253393
96	0xbde4e444	-0.11176351
97	0xbe1c8af4	-0.15287381
98	0x3ebd476a	0.36968547
99	0x3e8850a9	0.2662404
100	0x3ec09e24	0.37620652
101	0x3e535caf	0.20640825
102	0x3e60ad74	0.21941167
103	0x3e045b25	0.12925394
104	0x3cddc49e	0.027071293
105	0x3ef28d22	0.473733
106	0x3de13baf	0.10997712
107	0x3def68ea	0.11689933
108	0x3edd16fd	0.431816
109	0x3d802dfc	0.06258771
110	0x3e6ce1ab	0.2313296
111	0x3c9dc3b4	0.019258358
112	0x3da0ccaa	0.078515366
113	0x3eee97e1	0.4660025
114	0x3d3170c8	0.043320447
115	0x3dc74481	0.09729863
116	0x3de3c39d	0.11121295
117	0x3d9e38f3	0.07725706
118	0x3eb78f02	0.35851294
119	0x3ea08416	0.31350774
120	0xbeef1a44	-0.46699727
121	0x3bef7e46	0.007308754
122	0x3e450f3f	0.19244097
123	0x3ebddcda	0.3708256
124	0x3deb33b8	0.11484474
125	0x3e89e9a7	0.26936075
126	0x3db4aff3	0.08822622
127	0x3e8f9bb3	0.28048477
128	0x3daabc83	0.08336737
129	0x3eb93ae3	0.3617774
130	0x3e5637ec	0.2091977
131	0x3e5617c4	0.20907503
132	0xbe10fd9a	-0.14159241
133	0xbeb3b202	-0.35096747
134	0x3de67c80	0.11254215
135	0xbef2fb10	-0.4745717
136	0xbdbe61b5	-0.0929598
137	0xbd7115bd	-0.058858622
138	0xbc4010ba	-0.011722738
139	0xbee58dfb	-0.44834885
140	0xbd9624cf	-0.073312394
141	0x3db45005	0.08804325
142	0xbc8eae31	-0.017417045
143	0x3b32bdd9	0.0027273803
144	0x3e09afeb	0.13446014
145	0x3e6865c8	0.22695076
146	0x3e994cfb	0.29941544
147	0x3ebf1edf	0.3732824
148	0xbe499f90	-0.19689775
149	0x3f024c4b	0.50897664
150	0xbcd29d68	-0.025709823
151	0x3ea18c2f	0.31552264
152	0xbd2c3a47	-0.042047765
153	0xbeb12c03	-0.3460389
154	0xbe7e1214	-0.24811584
155	0x3ddd24ed	0.10798059
156	0xbd831769	-0.064009495
157	0x3e8e8332	0.2783447
158	0xbce3ea72	-0.027821753
159	0xbed58e52	-0.41710144
160	0x3ea58dc9	0.32334736
161	0xbebcfcf5	-0.3691174
162	0xbeb124f9	-0.3459852
163	0xbed035ae	-0.40665954
164	0xbef28343	-0.4736577
165	0x3eb28b6f	0.34872004
166	0x3eb075c0	0.34464836
167	0x3e365c45	0.17808636
168	0x3ee93d49	0.4555457
169	0xbe801bc8	-0.25021195
170	0xbeb54dac	-0.3541082
171	0x3ec1ed77	0.37876484
172	0xbf0790c0	-0.52955246
173	0xbeda9595	-0.42692247
174	0x3e2eac3f	0.17057894
175	0xbe2e01ce	-0.16992876
176	0xbe27d924	-0.16391426
177	0x3db071d9	0.08615465
178	0x3ea86c5f	0.3289518
179	0x3eec9ad0	0.46211863
180	0xbe86e185	-0.26343933
181	0xbdadc662	-0.08485104
182	0x3dfed405	0.12442783
183	0xbeddff86	-0.4335901
184	0x3f239737	0.6390261
185	0x3edd8cbc	0.43271434
186	0xbf252563	-0.6451017
187	0x3e4cf388	0.20014775
188	0x3e4838a7	0.19552861
189	0x3f055489	0.52082115
190	0xbe6db0eb	-0.2321202
191	0xbd7df2ee	-0.061999254
192	0xbefb69b3	-0.4910408
193	0x3e966506	0.2937395
194	0xbcc9d604	-0.024638183
195	0xbe2ace7e	-0.16680333
196	0xbe221ebe	-0.1583204
197	0xbe2e8eba	-0.17046633
198	0x3ea2dfc3	0.31811342
199	0xbcce3508	-0.025171772
200	0xbe910bc4	-0.2832929
201	0x3e631647	0.22176467
202	0x3e8c5c90	0.2741437
203	0xbd73fcb7	-0.05956718
204	0x3f00d0cc	0.503186
205	0xbeceef36	-0.40416878
206	0x3eb617d1	0.35565045
207	0xbe8e5d7d	-0.278057
208	0xbe7efe62	-0.24901727
209	0xbe49b04c	-0.19696158
210	0x3dd64ccc	0.104638666
211	0x3e02026d	0.12696238
212	0x3e3d756e	0.18501827
213	0x3ed1832f	0.40920398
214	0x3ea5e4e1	0.32401183
215	0x3edd4f35	0.43224493
216	0xbdea3b9d	-0.114371516
217	0xbd44d198	-0.048051447
218	0xbe47c72a	-0.19509569
219	0x3ed6bd31	0.41941217
220	0x3c99ee29	0.018790321
221	0x3e44ff9f	0.19238137
222	0x3f05acad	0.5221661
223	0x3dcbe539	0.0995583
224	0xbe44735d	-0.19184633
225	0xbeff700d	-0.49890175
226	0x3ca3ae64	0.019980617
227	0x3e54a739	0.20766915
228	0xbd84dd84	-0.06487563
229	0xbb1e04fc	-0.0024111858
230	0x3f018d7b	0.5060651
231	0x3e9acb46	0.3023321
232	0x3ee7eea9	0.4529927
233	0xbe0bfe6c	-0.13671273
234	0xbeaca520	-0.3371973
235	0x3d934bcc	0.071921915
236	0xbc5ab9c1	-0.013349951
237	0xbe4e6377	-0.2015513
238	0x3e1e2aeb	0.1544606
239	0xbe237aa9	-0.1596476
240	0x3d3ca2fa	0.046053864
241	0x3e44850c	0.19191378
242	0xbd1a97ea	-0.037742533
243	0x3e8ce6d7	0.27519867
244	0x3bfb2654	0.007664481
245	0xbe03afdd	-0.12860055
246	0xbe63f791	-0.22262408
247	0xbeb98110	-0.3623128
248	0x3de35a93	0.1110126
249	0xbeabb25c	-0.33534515
250	0xbdc5972c	-0.09647974
251	0xbe51a93a	-0.20474711
252	0x3ec3e35b	0.38259396
253	0x3ea21fae	0.31664795
254	0x3db566a2	0.08857466
255	0x3eb99d92	0.3625303

sequential_1/dense_1/MatMul f4 [64, 7]
0	0xbe6d1902	-0.23154071
1	0xbed1b4b0	-0.40958166
2	0xbf4d5fab	-0.802241
3	0xbdec3f5a	-0.11535521
4	0x3f1900a1	0.59766585
5	0x3e9f22b5	0.31081167
6	0xbf29da19	-0.66348416
7	0x3d764e00	0.06013298
8	0xbeb6007f	-0.35547253
9	0x3cea9405	0.028635034
10	0xbedb990c	-0.42890203
11	0xbe82a5e6	-0.25517195
12	0xbea77d26	-0.32712668
13	0x3e692348	0.22767365
14	0x3ed4459b	0.41459355
15	0xbf02e076	-0.5112375
16	0xbd86b0ff	-0.06576728
17	0x3d817c2d	0.06322513
18	0xbf20fa6a	-0.628821
19	0x3ec7f6e1	0.3905554
20	0xbe8692c1	-0.2628384
21	0x3eba1c93	0.36349925
22	0xbe4f8f77	-0.20269571
23	0xbedbc4f2	-0.42923695
24	0x3e99b833	0.30023345
25	0x3f023ce3	0.50874156
26	0x3ee7f5cc	0.45304716
27	0xbe3d572f	-0.18490289
28	0xbef28326	-0.47365683
29	0x3effc303	0.4995347
30	0x3d461572	0.048360296
31	0xbd4f347a	-0.050587155
32	0x3de89345	0.113562144
33	0x3ecc144a	0.3985923
34	0xbf2204cf	-0.6328859
35	0xbed084d8	-0.40726352
36	0xbdb8ffa7	-0.09033137
37	0x3f186a40	0.59537125
38	0xbe83f705	-0.25774398
39	0x3ed82c2d	0.42221203
40	0xbec2472e	-0.3794493
41	0x3d8775ae	0.066142425
42	0x3f02da3c	0.5111425
43	0x3dd67b1e	0.104727015
44	0x3dab8b13	0.08376136
45	0xbe88936f	-0.26674983
46	0xbefaafee	-0.4896235
47	0xbd693eeb	-0.05694477
48	0x3e40ea55	0.1883939
49	0x3e89b33a	0.26894552
50	0x3edf8675	0.4365727
51	0x3ed7779c	0.42083442
52	0x3e6ff7b3	0.23434334
53	0xbde46372	-0.1115178
54	0x3ce2878b	0.027652523
55	0xbe1d0350	-0.15333295
56	0x3e360ed1	0.1777909
57	0xbf26f521	-0.6521779
58	0x3e8d55f3	0.27604637
59	0xbe9b100d	-0.30285683
60	0xbf009082	-0.502205
61	0x3c653bb3	0.013991284
62	0xbe3b7b6d	-0.18308802
63	0xbf1c6420	-0.6109028
64	0x3d907a54	0.07054582
65	0xbceeba53	-0.02914158
66	0xbe8472b2	-0.25868756
67	0x3eac0a33	0.3360153
68	0x3e7616e6	0.24032173
69	0x3f2e4611	0.6807566
70	0xbe7a8328	-0.24464095
71	0x3f3acaa4	0.72965455
72	0xbf5870a4	-0.84546876
73	0x3daa45ff	0.08314132
74	0xbf287100	-0.65797424
75	0x3de6b172	0.11264314
76	0x3de8be1b	0.11364385
77	0x3ec89ff8	0.39184546
78	0x3f39c437	0.72565025
79	0xbe43aeea	-0.19109693
80	0x3da76933	0.08174362
81	0xbaeb0292	-0.0017929843
82	0xbdd9fcf0	-0.10643947
83	0xbea5b074	-0.32361186
84	0xbeba52c6	-0.36391276
85	0x3f216c3d	0.63055784
86	0xbf096542	-0.5367013
87	0x3e066d42	0.13127616
88	0xbeb01b0c	-0.34395635
89	0x3e34f5ac	0.17671841
90	0x3efd4093	0.4946333
91	0xbe417a09	-0.18894209
92	0xbf344fca	-0.7043425
93	0xbd400517	-0.046879854
94	0x3ebf22ac	0.3733114
95	0x3ed1fab1	0.41011575
96	0xbdb51441	-0.08841754
97	0xbd94bd8f	-0.07262718
98	0xbe76e6d4	-0.24111491
99	0x3ef67095	0.48132768
100	0x3e10136a	0.14069906
101	0x3ea82f58	0.3284862
102	0x3f333332	0.6999999
103	0x3d53e2a5	0.051729817
104	0x3ed57d8e	0.41697353
105	0xbe62e490	-0.22157502
106	0xbdcb2019	-0.099182315
107	0x3e9d0107	0.30664846
108	0xbcb8b45c	-0.02254694
109	0xbf3b097e	-0.7306136
110	0x3dd69aa5	0.10478715
111	0xbf53b944	-0.8270457
112	0xbecf9a60	-0.40547466
113	0xbedcfd3d	-0.43161955
114	0xbe14f418	-0.1454624
115	0xbe77b26b	-0.24189155
116	0x3e70fa1d	0.2353291
117	0xbe6f6791	-0.23379351
118	0xbf2dc13a	-0.67872965
119	0x3eb25619	0.34831312
120	0x3eb5c11a	0.35498887
121	0xbec6df69	-0.38842323
122	0xbe9fc5ae	-0.31205505
123	0x3e3864b0	0.18007159
124	0xbc5071e4	-0.012722466
125	0xbe45dd52	-0.19322708
126	0xbe27aadc	-0.16373771
127	0x3edd51e1	0.4322653
128	0xbe95524d	-0.29164353
129	0xbf04a6df	-0.51817125
130	0xbf2fabc5	-0.68621475
131	0x3dc7db22	0.09758593
132	0xbef91fba	-0.48657018
133	0xbee73962	-0.45160967
134	0xbe91110a	-0.28333312
135	0xbf6a303c	-0.9147985
136	0x3dbe7f01	0.09301568
137	0xbf1a118d	-0.6018303
138	0x3e7d218d	0.2471983
139	0xbecc3e9b	-0.39891514
140	0x3ef4059e	0.47660536
141	0xbe789694	-0.24276191
142	0x3ed7dd66	0.421611
143	0x3e47a0a2	0.1949487
144	0x3f5833e6	0.8445419
145	0x3e8f2f8d	0.27965966
146	0x3e1373f5	0.14399703
147	0xbe97c177	-0.2963979
148	0xbf44d454	-0.76886487
149	0xbf07dc3d	-0.5307043
150	0xbd868ffc	-0.065704316
151	0x3e545a5c	0.20737594
152	0x3ca13ded	0.019682849
153	0x3eb81111	0.3595052
154	0xbf2af826	-0.66784894
155	0xbe0e6c5d	-0.13908525
156	0x3eb96cc6	0.362158
157	0x3e465a2f	0.1937034
158	0x3e9c3dc2	0.30515867
159	0xbf0aea6e	-0.5426396
160	0x3ea9ca0c	0.33161962
161	0xbda7dd51	-0.0819651
162	0xbebb991c	-0.3664025
163	0xbec9e05b	-0.39428982
164	0xbd0ea61d	-0.034826387
165	0xbef885bc	-0.4853953
166	0xbf0e9a9e	-0.5570468
167	0xbde28a25	-0.11061505
168	0x3e83cf9b	0.25744328
169	0x3ca3f1f0	0.020012826
170	0x3df67a72	0.12035073
171	0x3f1bfb6e	0.60930526
172	0x3e37eeaf	0.17962144
173	0xbf2255bf	-0.6341209
174	0xbee43c3b	-0.44577202
175	0x3e1cc04e	0.15307733
176	0xbc0ed13e	-0.008716879
177	0x3e8b5ea3	0.2722064
178	0xbb1ba451	-0.0023749063
179	0x3f27842c	0.65436053
180	0x3c5b4043	0.01338202
181	0xbf3e492d	-0.7433041
182	0x3d5cbf51	0.05389339
183	0x3eedd593	0.46452007
184	0xbf878e20	-1.0590248
185	0x3e1feb2b	0.15617053
186	0x3ea12429	0.314729
187	0x3d2b58db	0.041832786
188	0xbe1313a7	-0.14362966
189	0xbe070e99	-0.13189162
190	0xbe6e55fe	-0.23274991
191	0xbec12754	-0.37725317
192	0x3e6ead9b	0.23308413
193	0x3daf277b	0.08552452
194	0x3ebf4b4a	0.37362128
195	0x3f04f7e8	0.51940775
196	0xbefc6c93	-0.49301586
197	0xbe97b0a0	-0.29626942
198	0xbcd1d7a8	-0.025615528
199	0xbd2465a7	-0.040136006
200	0x3ef1ba32	0.47212368
201	0xbe67a5a4	-0.2262178
202	0x3e70b936	0.23508152
203	0x3e55c7a5	0.2087694
204	0xbf054a95	-0.5206693
205	0xbedb17cc	-0.42791593
206	0x3ec6125f	0.3868589
207	0xbebda22b	-0.37037787
208	0x3e800843	0.25006303
209	0xbe33cb95	-0.17558129
210	0xbea686c1	-0.32524684
211	0x3f0a0c90	0.5392542
212	0xbee6f6f6	-0.4511029
213	0x3e143350	0.14472699
214	0xbe1405a4	-0.14455277
215	0xbed627e9	-0.41827324
216	0x3f0e3bac	0.555598
217	0xbdad197e	-0.08452128
218	0xbe8d42f5	-0.27590147
219	0x3f374597	0.7159056
220	0xbf0469db	-0.5172402
221	0x3ec02248	0.37526155
222	0xbdc8b20c	-0.09799585
223	0xbe3774fe	-0.17915723
224	0xbed9b95e	-0.42524236
225	0xbe575b65	-0.21030958
226	0x3e9332f8	0.28749824
227	0xbebd5f52	-0.36986786
228	0xbecdace1	-0.4017096
229	0x3db65c72	0.08904351
230	0xbf20589c	-0.6263521
231	0x3df938ee	0.121690616
232	0x3df5f811	0.120102055
233	0xbed8e78f	-0.42364165
234	0xbe9dad35	-0.3079621
235	0x3ec1ccc9	0.3785155
236	0xbaa1da84	-0.0012348448
237	0xbe864452	-0.26224
238	0x3ee518bd	0.44745436
239	0xbe08ca10	-0.1335833
240	0x3f17a8e7	0.592421
241	0xbe54fbff	-0.20799254
242	0x3f1bb03d	0.60815793
243	0xbe32ddf1	-0.17467476
244	0x3def52e4	0.11685732
245	0x3b040334	0.002014351
246	0x3f1613d5	0.5862401
247	0x3f11f06b	0.57007474
248	0x3e6c0f30	0.23052669
249	0x3e74124a	0.23835102
250	0xbea2a564	-0.31766808
251	0x3e569d06	0.20958337
252	0x3eacbbb9	0.3373697
253	0x3e88b76a	0.26702434
254	0xbdf80471	-0.12110222
255	0xbdddde17	-0.10833376

sequential_1/dense_1/Relu;sequential_1/dense_1/BiasAdd f4 [64]
0	0x3e6feee2	0.2343097
1	0x3ec7afdb	0.39001355
2	0x3eb8ca87	0.36092016
3	0x3ee95441	0.45572093
4	0x3e54987b	0.20761292
5	0x3efe8a78	0.49715018
6	0x3f0197f3	0.5062248
7	0x3f07bee1	0.53025633
8	0x3f0e4b63	0.5558378
9	0x3eb8c7a9	0.3608983
10	0x3f0b9aea	0.54533255
11	0x3f2ba5ef	0.6705007
12	0x3e123ea9	0.14281715
13	0x3ec78662	0.38969713
14	0x3f18f255	0.5974477
15	0x3e727e49	0.23680986
16	0x3eaf850e	0.342812
17	0x3e2252ec	0.15851945
18	0x3e306a00	0.17227936
19	0x3e9bbce3	0.30417547
20	0x3e4b9f5f	0.19885014
21	0xbbbf0b31	-0.0058301915
22	0x3e281b23	0.16416602
23	0x3ec2f154	0.38074744
24	0x3d18ba78	0.037287205
25	0x3d8d4032	0.0689701
26	0x3e9e300e	0.30896038
27	0x3e98c37d	0.29836646
28	0x3eea60d5	0.45777002
29	0x3ea8c305	0.32961288
30	0x3e8e6f92	0.27819496
31	0x3e86bc55	0.2631556
32	0x3e31a905	0.17349632
33	0x3ef5793e	0.47944063
34	0x3ec280b1	0.3798881
35	0x3e4098b2	0.18808249
36	0x3ecb3a45	0.39692894
37	0x3e76158f	0.24031661
38	0x3d8dcc02	0.06923677
39	0x3f09fb1a	0.53898776
40	0x3cfcc9b7	0.030857904
41	0xbce89409	-0.028390901
42	0x3e577338	0.21040046
43	0x3e698037	0.22802816
44	0x3ec1df47	0.3786566
45	0xbcf416e9	-0.02979608
46	0x3ecda87f	0.40167615
47	0x3d44e33f	0.04806828
48	0xbdc2a266	-0.09503631
49	0x3e170dcb	0.14751355
50	0x3d19e074	0.03756757
51	0x3edfaa8c	0.43684804
52	0x3ef80b97	0.48446342
53	0x3ed23d2c	0.41062295
54	0x3da6c82a	0.08143647
55	0x3ef236fe	0.4730758
56	0x3ede123e	0.43373293
57	0x3dd44bf6	0.10366051
58	0x3f21e648	0.63242006
59	0x3e0ff951	0.1405995
60	0x3e025b12	0.12730053
61	0x3e83004d	0.25586167
62	0xbe19e44c	-0.15028495
63	0x3db4828e	0.08813964
